ml-agents-develop/config/ppo/results/MyML/3DBall.onnx (onnx, 74221 bytes, 9 tensors)

62 f4 [8]
0	0x3d93522c	0.071934074
1	0x3d92d1fc	0.071689576
2	0x3f8998c0	1.0749741
3	0x3eb46efe	0.3524093
4	0x3f87ff10	1.0624714
5	0x3f61b6c1	0.88169485
6	0x3f84ac0f	1.0365008
7	0x3f62bd58	0.88570166

action_model._continuous_distribution.log_sigma f4 [1, 2]
0	0xbda0c10a	-0.07849319
1	0xbd664f94	-0.056228235

action_model._continuous_distribution.mu.bias f4 [2]
0	0x3a1fe50f	0.0006099501
1	0xbc01a594	-0.007913012

action_model._continuous_distribution.mu.weight f4 [2, 128]
0	0x3d82b59f	0.06382298
1	0xbd1c3fdd	-0.038146842
2	0x3bc8c258	0.006126683
3	0xbd85bb5d	-0.06529877
4	0x3c9e99e6	0.019360494
5	0xbb39ef68	-0.0028371457
6	0xbc18329f	-0.009289413
7	0x3c4eb6c1	0.012616814
8	0x3cca5787	0.02469994
9	0xbd79364c	-0.060842797
10	0xbb9c3929	-0.004767556
11	0x3ce93969	0.028469758
12	0xbbc04e58	-0.0058687143
13	0xbd04ddd0	-0.0324381
14	0xbd140742	-0.036139734
15	0xbcc442cd	-0.023957634
16	0xbd017276	-0.0316033
17	0xbc3544f2	-0.011063801
18	0xbde0a4ef	-0.109689586
19	0x3c8fd1af	0.01755604
20	0x3caa925f	0.020821748
21	0xbc0c8fc4	-0.008579198
22	0xbbaf19dc	-0.005343659
23	0x3c14e418	0.009087585
24	0x3b81507b	0.0039463616
25	0x3c8b112c	0.016975962
26	0xbcdfa040	-0.027298093
27	0x3c2d73e6	0.010586714
28	0xbdbbe60d	-0.09174738
29	0xbdb88a40	-0.09010744
30	0xbc7184dd	-0.01474115
31	0x3b3e189b	0.0029006365
32	0xba8f6a01	-0.0010941626
33	0xbd5ac3f5	-0.053409535
34	0x3caf2818	0.021381423
35	0xbc26c70f	-0.010179295
36	0xbcb42b80	-0.021993399
37	0xbce3c818	-0.027805373
38	0x3cb031be	0.021508094
39	0xbd1914ba	-0.037373282
40	0x3c6da9f7	0.014505855
41	0x3b7266e3	0.0036987595
42	0x3dce2f18	0.10067576
43	0x3c20a449	0.009804794
44	0x3bb0182b	0.005373975
45	0x3bfc370d	0.0076969923
46	0x3ceb04c4	0.028688796
47	0xbc56fcfa	-0.013121838
48	0xbc9ffcd7	-0.019529743
49	0x3d3a851f	0.04553711
50	0x3d594fed	0.05305474
51	0xbda54e56	-0.08071582
52	0xbc1ad9a0	-0.0094513
53	0xbc04ca5d	-0.008104888
54	0xbd635dca	-0.055509366
55	0x3be16cd2	0.0068794275
56	0xbb943a9b	-0.004523588
57	0xbb912ecc	-0.0044306275
58	0xbc40ac19	-0.011759781
59	0xbda68cd0	-0.081323266
60	0x3bfbbbce	0.0076823
61	0xbd47258a	-0.048619784
62	0x3c90b8ab	0.017666182
63	0x3d8202c9	0.063481875
64	0x3b713a7d	0.0036808543
65	0x3b26d869	0.002545858
66	0x3cc08c0b	0.023504278
67	0xbcf62245	-0.030045638
68	0xbd57ebe3	-0.052715193
69	0x3bc0007b	0.0058594323
70	0xbd047819	-0.032341097
71	0xbbfb7f50	-0.007675089
72	0x3dd1dc41	0.10247088
73	0xbd5b74ac	-0.053578064
74	0xbcd1771a	-0.025569487
75	0x3d8daed6	0.06918113
76	0x3d24853a	0.040166117
77	0x3d1f2bf9	0.038860295
78	0xbcb1be37	-0.021697147
79	0xbc9ffabc	-0.01952874
80	0xbcaf9d37	-0.02143727
81	0xbc415b25	-0.011801516
82	0x3bdf71cd	0.006818986
83	0xbb8b837b	-0.004257617
84	0x3d75b996	0.05999144
85	0x3c7d2bf0	0.01545237
86	0x3cdf72d6	0.027276438
87	0x3c113135	0.0088618295
88	0x3d374a45	0.044748563
89	0x3ca2f2f5	0.019891242
90	0x3c8cc2a1	0.01718265
91	0x3c4ff1ed	0.012691957
92	0xbd58d0b7	-0.05293342
93	0xbcdb1c6c	-0.026746951
94	0xbc54b577	-0.012982718
95	0xbdc9b98d	-0.09849844
96	0xb9ed81d0	-0.0004530088
97	0x3ce36804	0.02775956
98	0xbc2ea7f4	-0.01066016
99	0x3c8c91ed	0.017159427
100	0xbda636d9	-0.0811593
101	0xbb8ad801	-0.0042371755
102	0x3c5a03cc	0.013306569
103	0x3da23916	0.079210445
104	0x3c522f88	0.012828715
105	0x3c0cb099	0.008587026
106	0xbd8f7a32	-0.07005729
107	0x3d1d7954	0.038445786
108	0xbc2752b2	-0.010212587
109	0xbd78292f	-0.06058615
110	0xbd094dfd	-0.03352164
111	0xbcb8cf8d	-0.022559905
112	0xbc2643e0	-0.010148019
113	0x3c93b8c8	0.018032447
114	0xbe1281e0	-0.14307356
115	0x3cb60dc4	0.02222336
116	0xbce9354c	-0.028467797
117	0x3c8a0ff8	0.016853318
118	0x3c25355e	0.0100835245
119	0xbc836dbc	-0.016043536
120	0xbb5320a1	-0.0032215493
121	0xbdf1f29e	-0.11813854
122	0xbdc387d4	-0.095473915
123	0x3ca88f4b	0.02057614
124	0x3c90a650	0.017657429
125	0xbdb2c24d	-0.08728466
126	0x3d128c85	0.03577854
127	0x3bd77033	0.0065746545
128	0x3d1ebf2a	0.038756527
129	0x3b15bcd1	0.002284814
130	0xbbd2a9f8	-0.0064289533
131	0xba0c0d0a	-0.0005342519
132	0x3bede68d	0.00726015
133	0xbc4b64cd	-0.0124141695
134	0xbabf016e	-0.001457257
135	0x3cff3620	0.031153738
136	0x3c80dda1	0.01573068
137	0x3d169fff	0.036773678
138	0xbd31ca46	-0.043405794
139	0xbd86b519	-0.065775104
140	0x3c66865f	0.0140701225
141	0x3bf9f332	0.007627868
142	0xbd2913a4	-0.041278496
143	0x3d03e705	0.03220274
144	0xbe0f8d2f	-0.14018701
145	0x3d097ec7	0.03356817
146	0x3c3d14d4	0.01154061
147	0x3c170fcd	0.009220076
148	0x3ca467b4	0.02006898
149	0x3b2db2a0	0.0026504174
150	0xbc1fc0df	-0.009750574
151	0xbb18f30e	-0.0023338231
152	0xbc0bc19c	-0.008530047
153	0xbb675386	-0.0035297587
154	0xbc493a95	-0.012282033
155	0xbd1ca9fb	-0.038248044
156	0x3d5f7248	0.054552346
157	0x3d1fb9b8	0.038995475
158	0xbbb0a326	-0.0053905426
159	0xbc80f843	-0.01574338
160	0xbd033e13	-0.03204162
161	0x3cadfc57	0.02123849
162	0xbd278033	-0.040893745
163	0x3df1c6e3	0.11805513
164	0x3c929622	0.017893855
165	0x3d21847d	0.03943299
166	0xbd2a45ad	-0.041570354
167	0xbdcc44b2	-0.0997404
168	0xbc0a47a0	-0.008439928
169	0x3c1dc31b	0.009629036
170	0xbbe21730	-0.006899737
171	0x3b46f2c2	0.0030357097
172	0x3b9408ae	0.0045176363
173	0x3d42c70f	0.04755312
174	0x3de7ef36	0.11324923
175	0x3c58ec90	0.013239995
176	0x3c249419	0.010045075
177	0xbd45cdb8	-0.04829189
178	0xbce608ca	-0.028080363
179	0x3cae52db	0.021279743
180	0xbca30b33	-0.019902801
181	0x3cadf3b4	0.02123437
182	0x3cbd85aa	0.023135025
183	0x3d0ec736	0.03485795
184	0xbc4c8434	-0.012482692
185	0xbc274bbc	-0.010210928
186	0xbd360553	-0.04443867
187	0xbcaba222	-0.020951334
188	0xbe231307	-0.15925227
189	0x3bda687b	0.006665287
190	0xbd6aec73	-0.0573544
191	0xbcfe2872	-0.031025145
192	0xbc8c2a97	-0.017110152
193	0x3d0af3bd	0.033923853
194	0x3c4ca7a7	0.012491143
195	0xbda0bbae	-0.07848297
196	0xbc9596b9	-0.018260347
197	0x3d689cbe	0.056790106
198	0xbd17d0e6	-0.037064455
199	0xbd450488	-0.048100024
200	0xbdb8ef9d	-0.090300776
201	0xbc025bf8	-0.007956497
202	0xbc2793cc	-0.010228109
203	0x3d048936	0.032357417
204	0xbc8f4a95	-0.017491618
205	0xbd56d143	-0.05244566
206	0xbd272eb5	-0.040816028
207	0x3d887f82	0.06664945
208	0xbd18222b	-0.03714196
209	0xbd855556	-0.06510417
210	0xbda04335	-0.07825319
211	0xbb4bad95	-0.0031078805
212	0x3d06c464	0.032902136
213	0xbdbd3531	-0.09238661
214	0xbd27c003	-0.0409546
215	0x3b4251ab	0.0029650729
216	0x39fca4c2	0.0004818794
217	0x3cc863e6	0.024461698
218	0x3d73f08e	0.059555583
219	0xbba1180c	-0.0049161967
220	0x3d11b699	0.03557453
221	0xbbda3808	-0.0066595115
222	0xbc7b55c0	-0.015340269
223	0x3ca6e6a1	0.020373644
224	0xbaa85639	-0.0012843079
225	0xbca16f17	-0.019706292
226	0xbbd6fcd8	-0.006560903
227	0xbba92343	-0.005161674
228	0xbd2d652e	-0.04233282
229	0x3bc6edd3	0.0060708313
230	0xbcaa3a9c	-0.0207799
231	0xbb7a477f	-0.0038189588
232	0xbd9fad9f	-0.077967875
233	0xbc18da8a	-0.0093294475
234	0xbc9eb627	-0.019373966
235	0x3d871d08	0.06597334
236	0xbd0de50d	-0.034642268
237	0x3dd9f605	0.106426276
238	0x3aba79d8	0.0014226986
239	0xbd10c627	-0.035345223
240	0x3c710d5a	0.014712656
241	0xbd2181e2	-0.039430507
242	0xbceaafb7	-0.02864824
243	0x3d4737a5	0.04863705
244	0xbc348370	-0.011017665
245	0x3c940d88	0.018072858
246	0x3c47e63e	0.01220089
247	0x3c96c7e2	0.018405858
248	0xbd9b570c	-0.07584962
249	0xbc9f99d5	-0.019482533
250	0xbd3ee95f	-0.04660928
251	0x3d1fd9b2	0.03902597
252	0x3d847fe5	0.064697064
253	0xbd5edb93	-0.05440862
254	0xbb704e89	-0.0036667904
255	0x3a4504c2	0.00075156626

network_body.linear_encoder.seq_layers.0.bias f4 [128]
0	0xbcb100b6	-0.021606784
1	0xbd9269e5	-0.07149104
2	0xbca26126	-0.019821715
3	0xbb9b4921	-0.0047389423
4	0xbc7fea32	-0.015619801
5	0xbdae4215	-0.08508698
6	0x3d45d7b1	0.048301402
7	0x3c53983a	0.012914712
8	0xbc66ea5f	-0.014093964
9	0xbc61d36b	-0.013783316
10	0x3b039dac	0.0020082993
11	0xbcc6d220	-0.024270117
12	0xbba79f65	-0.005115437
13	0xbd27f1af	-0.04100197
14	0xbc9b8c02	-0.01898766
15	0x3c0afed0	0.008483604
16	0xbbf2ff3a	-0.0074156793
17	0xbdc2377c	-0.09483239
18	0xbd34118b	-0.043962043
19	0x3d3779c8	0.044793874
20	0xbd23b1c1	-0.03996444
21	0xbd9838d7	-0.07432716
22	0xbd880e31	-0.06643332
23	0xbb8cb3aa	-0.0042938786
24	0x3c5d9fea	0.013526896
25	0xbd83492e	-0.06410442
26	0xbd94481d	-0.07240317
27	0xbd4d8ce4	-0.050183192
28	0xbd74b19d	-0.059739698
29	0x3c1c0678	0.009523027
30	0xbd56960d	-0.052389193
31	0xbd2b7ac3	-0.04186512
32	0xbd1dd957	-0.03853735
33	0x3ba20375	0.0049442598
34	0x3d059c31	0.03261966
35	0xbd52e2f0	-0.051485956
36	0xbc59959c	-0.013280299
37	0xbd3ffeff	-0.046874043
38	0x3bcb274c	0.006199753
39	0x3d780eb1	0.060560886
40	0xbcc0acae	-0.02351984
41	0xbc84d1de	-0.016213354
42	0x3c318aaf	0.010836287
43	0xbab55632	-0.0013834892
44	0xbc80b0eb	-0.015709361
45	0xbd113b8a	-0.03545717
46	0xbd2159d1	-0.039392296
47	0xba6044e0	-0.0008555185
48	0xbd99f9d9	-0.07518358
49	0x3c905f18	0.01762347
50	0xbc6682af	-0.014069243
51	0x3c8a744a	0.016901154
52	0xbcee7d66	-0.029112529
53	0x3d02efa6	0.031966828
54	0xbc708a81	-0.014681459
55	0xbb46f3d6	-0.003035774
56	0x3b896c88	0.004193846
57	0xbd6e179a	-0.058127977
58	0xbd658df9	-0.0560436
59	0x3baa537d	0.005197941
60	0x3c789598	0.015172385
61	0xbd4c8666	-0.04993286
62	0xbce71dc5	-0.028212437
63	0xbc9a687d	-0.018848652
64	0x3c36506f	0.011127575
65	0xbd70daec	-0.05880253
66	0xbb4909c0	-0.0030675977
67	0x3d14f8d4	0.036370113
68	0xbd077512	-0.03307063
69	0xbd4f8028	-0.05065933
70	0xbd2410c4	-0.04005505
71	0x3d287a90	0.04113251
72	0x3d29b145	0.041428823
73	0xbbfbc6c6	-0.0076836077
74	0xbbfe0f6a	-0.0077533023
75	0x3ccb697c	0.024830572
76	0xbccffcb9	-0.025389062
77	0x3d1f3d45	0.03887679
78	0xbd209d63	-0.039212596
79	0xbd247d9c	-0.040158853
80	0x3c0ba9aa	0.008524338
81	0x3d334f8e	0.04377704
82	0xbdb59f11	-0.0886823
83	0xbd53cf15	-0.05171116
84	0xbc516d1c	-0.012782361
85	0x3d2f027d	0.042726982
86	0x3c0219bf	0.007940709
87	0x3bc2bdab	0.0059430203
88	0x3d49894c	0.049203202
89	0xbc51bba9	-0.012801089
90	0x3c97bf58	0.018523857
91	0xbcf88e12	-0.030341182
92	0xbdc79a9e	-0.09746288
93	0xbd196383	-0.037448417
94	0xbbf436d3	-0.0074528246
95	0xbd0a78e7	-0.033806708
96	0xbda2e101	-0.07953072
97	0x3d13f801	0.036125187
98	0x3cbd59db	0.023114135
99	0xbce5d251	-0.028054388
100	0xbdd550db	-0.104158126
101	0xbcba9293	-0.02277497
102	0x3d0b613e	0.034028284
103	0x3c805845	0.01566709
104	0x3cc4628d	0.023972774
105	0xbc39fb65	-0.011351441
106	0xbd1dd06f	-0.038528856
107	0xbd765311	-0.060137812
108	0xbcfea2b8	-0.03108345
109	0xbc6f6913	-0.014612454
110	0x3d0b5f63	0.034026515
111	0xbc9f3196	-0.019432824
112	0xbd8895a4	-0.06669167
113	0xbc8173dd	-0.015802318
114	0xbc24d02d	-0.010059399
115	0xbcc08c56	-0.023504417
116	0xbca55232	-0.020180795
117	0xbce572a8	-0.028008774
118	0xbcaab71f	-0.020839272
119	0xbd1411c6	-0.036149763
120	0xbc9da451	-0.019243391
121	0xbda1510f	-0.07876789
122	0xbd851ddb	-0.06499835
123	0xb9616c5c	-0.00021498039
124	0xbb179580	-0.002312988
125	0xba776c49	-0.0009438438
126	0xbc4882c2	-0.012238206
127	0xbb314841	-0.0027051123

network_body.linear_encoder.seq_layers.0.weight f4 [128, 8]
0	0x3e8782b7	0.26466915
1	0xbee97cf0	-0.45603132
2	0xbdbf658c	-0.093455404
3	0xbd801c2a	-0.06255372
4	0x3ede2d4f	0.43393943
5	0x3e021f54	0.12707263
6	0x3e10432e	0.14088127
7	0x3d6702c6	0.05639913
8	0x3d2282ed	0.03967564
9	0xbf23d0c1	-0.6399041
10	0xbed3bf42	-0.41356856
11	0xbe5388dd	-0.20657678
12	0x3ea38db6	0.31944054
13	0xbcf67c3f	-0.030088542
14	0xbf013c5e	-0.5048274
15	0x3dd69dbe	0.10479306
16	0xbc8dc0a8	-0.01730378
17	0xbe3e051c	-0.18556637
18	0xbedd7b98	-0.43258357
19	0xbead046c	-0.33792436
20	0xbd50bd23	-0.050961625
21	0xbf218edb	-0.63108605
22	0xbd732437	-0.05936071
23	0xbf418d19	-0.7560592
24	0xbe12b0ff	-0.14325331
25	0x3ec5ae2e	0.3860945
26	0x3eca766e	0.3954348
27	0x3ce1c36d	0.027559007
28	0x3ebfce56	0.3746211
29	0x3f599077	0.8498606
30	0x3f031c9e	0.5121554
31	0x3e76fde3	0.24120288
32	0xbe81f3e2	-0.2538138
33	0xbe2f2b04	-0.17106253
34	0x3ca3fc26	0.020017695
35	0x3e2a5a08	0.16635907
36	0x3e83bdd9	0.2573078
37	0x3eaf8fe5	0.3428947
38	0x3d74808a	0.059692897
39	0x3ee5dd00	0.44895172
40	0x3eae99fb	0.34101853
41	0xbf037aed	-0.51359445
42	0xbe90cb41	-0.2828007
43	0xbf354d26	-0.70820844
44	0x3edc45c9	0.43021992
45	0xbf1ebfa4	-0.6201117
46	0xbe2eb913	-0.17062788
47	0xbe1dd901	-0.15414812
48	0x3ed9baa6	0.42525214
49	0xbf0bb16f	-0.5456762
50	0x3e5f02d1	0.21778418
51	0x3f26da59	0.6517692
52	0xbe0087d5	-0.12551816
53	0xbf043582	-0.51644146
54	0xbe0a4adb	-0.13505118
55	0xbf8a8a2f	-1.082342
56	0x3cc524c6	0.024065387
57	0x3e02387b	0.12716858
58	0x3e085f45	0.13317592
59	0xbe697cff	-0.22801588
60	0x3e9e8a1d	0.30964747
61	0xbef7a1b2	-0.4836555
62	0x3e8b02ad	0.2715048
63	0x3ed1f8b2	0.41010052
64	0xbef1cbf4	-0.47225916
65	0x3e5966a2	0.21230558
66	0x3ded00a0	0.11572385
67	0x3e87b36d	0.26504079
68	0x3d895a4b	0.06706675
69	0x3ed00150	0.40626
70	0x3e99ffc8	0.30077958
71	0x3ed369e9	0.4129174
72	0xbd98d4c9	-0.074624605
73	0x3e050c78	0.12993038
74	0x3ee5975d	0.44842044
75	0x3e6dacb3	0.23210411
76	0x3e36a432	0.17836073
77	0x3dad018a	0.08447559
78	0x3e823fb2	0.2543922
79	0xbf1804aa	-0.59382117
80	0x3e4c00a9	0.19922127
81	0xbe4fe451	-0.2030194
82	0xbd08ad39	-0.033368323
83	0x3e652eec	0.2238118
84	0xbe6619b1	-0.22470738
85	0xbe1d06de	-0.15334651
86	0x3e276dc9	0.16350473
87	0xbe17f89d	-0.14840932
88	0xbdfd2336	-0.123602316
89	0x3dd36846	0.10322623
90	0xbd3d9372	-0.046283193
91	0x3c20c67d	0.009812948
92	0xbea47527	-0.3212063
93	0xbda762c3	-0.08173134
94	0xbed387c3	-0.41314515
95	0x3f182f5f	0.5944728
96	0x3ed96ebe	0.42467302
97	0xbe0d1118	-0.13776052
98	0xbe6a8dcd	-0.22905655
99	0x3e5f2d49	0.21794619
100	0x3ca83f5b	0.020538023
101	0xbeae192f	-0.3400359
102	0xbac87d07	-0.001529605
103	0x3f042908	0.5162511
104	0xbe01251e	-0.12611815
105	0x3ec3f35c	0.38271606
106	0x3f1bc2b1	0.6084395
107	0xbde53d06	-0.1119328
108	0xbe2a6e77	-0.16643701
109	0x3ed9e4a5	0.42557254
110	0xbf02e9a5	-0.51137763
111	0x3e499dd3	0.19689111
112	0xbe62b435	-0.22139056
113	0xbe4b76ec	-0.19869584
114	0xbdf2780a	-0.11839302
115	0x3f0239f0	0.50869656
116	0xbdcd6798	-0.100295246
117	0x3f12b428	0.57306147
118	0xbe9eca5d	-0.31013766
119	0x3ecfec1a	0.4060982
120	0xbee762d6	-0.45192593
121	0xbf69361c	-0.9109819
122	0xbe8fc664	-0.28081048
123	0x3d8a9b11	0.06767858
124	0xbe034b78	-0.12821758
125	0xbe504ee1	-0.2034259
126	0xbd74660a	-0.059667625
127	0x3ca6f9c5	0.020382771
128	0x3e9b9656	0.30388135
129	0xbe32456e	-0.17409298
130	0xbeaa3fb1	-0.33251718
131	0x3f07c55a	0.5303551
132	0x3d95d6c0	0.07316351
133	0xbe2557c9	-0.16146769
134	0xbe338218	-0.17530096
135	0x3ebd0de1	0.3692465
136	0xbd5fcc0a	-0.054637946
137	0x3e800ade	0.2500829
138	0x3f4aad8d	0.7917107
139	0x3d8e24c7	0.069406085
140	0xbee7ecfd	-0.45297995
141	0xbde0ee36	-0.10982935
142	0xbdb95ba0	-0.09050679
143	0xbe9e1a7e	-0.30879587
144	0xbe9f3814	-0.31097472
145	0xbc888f1c	-0.016669802
146	0xbe8f7e6d	-0.28026143
147	0xbe819653	-0.2531
148	0xbe9f5af5	-0.31124082
149	0x3ec98369	0.3935807
150	0x3de7ee3f	0.11324739
151	0x3d9bc087	0.07605081
152	0x3e3f6bdf	0.18693493
153	0xbe944f9b	-0.28966984
154	0xbc1f9c6e	-0.009741886
155	0xbd240db2	-0.040052123
156	0xbd46612e	-0.04843252
157	0xbf1ba886	-0.6080402
158	0x3eacd428	0.33755612
159	0x3f05aedb	0.52219933
160	0xbc92560a	-0.017863292
161	0x3f0e54f7	0.55598396
162	0x3e3cc58d	0.18434735
163	0xbdc858fc	-0.097825974
164	0xbeb8dafb	-0.3610457
165	0x3d9a700a	0.07540901
166	0xbebe0da0	-0.3711977
167	0xbef7b970	-0.48383665
168	0x3c3f251d	0.011666563
169	0xbf18a016	-0.5961927
170	0x3e664daf	0.22490571
171	0xbdbcceb4	-0.09219113
172	0x3cd9bb96	0.026578706
173	0xbd58db92	-0.052943774
174	0xbd40fce9	-0.047116194
175	0x3f24f16c	0.6443088
176	0xbdce7e69	-0.100827046
177	0xbe806fc6	-0.25085276
178	0xbe6d7297	-0.23188244
179	0xbf33dbf2	-0.70257485
180	0x3e64a014	0.2232669
181	0xbeb28614	-0.34867918
182	0xbcfa0c59	-0.030523466
183	0x3f0a1fdf	0.5395488
184	0xbe9e0cee	-0.3086924
185	0xbdf07188	-0.11740404
186	0xbea1e94d	-0.31623307
187	0xbcc3f4c3	-0.023920422
188	0xbdbb1ca6	-0.09136324
189	0x3f201a55	0.6254018
190	0xbe6ae2a0	-0.22938013
191	0xbed678f6	-0.4188916
192	0x3d753796	0.059867464
193	0x3e038fad	0.12847777
194	0x3f79f5ee	0.97640884
195	0x3e83ce1e	0.25743192
196	0xbe6091be	-0.21930596
197	0xbf10b7b3	-0.565303
198	0x3e47b34e	0.19501993
199	0x3eaabd2e	0.33347458
200	0xbdcad927	-0.099047
201	0xbf00a29f	-0.5024814
202	0xbcbd2b5d	-0.023091966
203	0xbee60704	-0.44927227
204	0xbe2ced28	-0.16887343
205	0xbe12b31e	-0.1432614
206	0x3e29c0c4	0.1657744
207	0xbecfba43	-0.40571794
208	0xbe83a146	-0.2570898
209	0x3dba347d	0.090920426
210	0xbed9b138	-0.4251802
211	0xbf112838	-0.56701994
212	0x3c720ff2	0.0147743095
213	0x3de60c8a	0.112328604
214	0xbeaabe7d	-0.33348456
215	0xbe99566f	-0.29948756
216	0x3c03603e	0.008018551
217	0xbf4d6a0b	-0.80239934
218	0x3f65c7bf	0.89757913
219	0x3edb061a	0.42778093
220	0x3e99a935	0.30011907
221	0xbe24fc18	-0.16111791
222	0x3f00c2d9	0.50297314
223	0xbc917376	-0.017755251
224	0x3d06ad79	0.03288028
225	0xbe12925f	-0.14313649
226	0x3ef10513	0.47074184
227	0xbf8638eb	-1.048612
228	0xbdc89b39	-0.09795231
229	0xbe19d66e	-0.15023205
230	0xbe64bbd4	-0.22337276
231	0x3dbc8641	0.092052944
232	0x39245df2	0.00015675256
233	0xbf6d356e	-0.9265965
234	0x3dbf3a8b	0.09337338
235	0xbf0fdefe	-0.56199634
236	0xbef86a2a	-0.48518497
237	0xbee1c7bd	-0.440977
238	0x3d338af3	0.043833684
239	0xbe8ed74e	-0.2789864
240	0xbe1c6839	-0.15274133
241	0x3e66aaed	0.2252614
242	0x3f06863c	0.52548575
243	0x3e6d2d6c	0.23161858
244	0xbd8e277a	-0.06941123
245	0xbdf13f0e	-0.11779605
246	0xbedc34ae	-0.4300894
247	0x3f620539	0.8828922
248	0x3eba0524	0.36332047
249	0x3f02377c	0.5086591
250	0x3eadb577	0.3392751
251	0x3df3d9f8	0.119068086
252	0xbf1878c3	-0.5955927
253	0x3e929278	0.28627372
254	0xbe49a571	-0.19692017
255	0xbeaa0344	-0.33205616

network_body.linear_encoder.seq_layers.2.bias f4 [128]
0	0x3ca5c1f6	0.02023409
1	0xbbb8942c	-0.005632898
2	0xbc0ab135	-0.008465101
3	0x3c060293	0.008179325
4	0x3c1a4ee8	0.009418227
5	0xbc21581a	-0.009847665
6	0xbcbcf07c	-0.02306389
7	0x3b3d60fd	0.002889692
8	0xbbaaffc8	-0.00521848
9	0x3d1c0b20	0.038096547
10	0x3b072f48	0.0020627547
11	0x3cdd77c8	0.027034655
12	0xbb2141c0	-0.002460584
13	0xbc28fc21	-0.010314018
14	0x3b38074c	0.002808052
15	0xbc8e7866	-0.017391395
16	0x3d95bfb3	0.07311954
17	0xba0e8863	-0.00054371933
18	0x3d2dea3c	0.04245971
19	0x3bc37fbc	0.005966155
20	0xbbee0ec7	-0.007264945
21	0xbc9ff4bc	-0.019525878
22	0xbcab5156	-0.020912807
23	0xbb7c0669	-0.003845597
24	0x3af685ca	0.0018808183
25	0x3b274381	0.0025522413
26	0x38770b90	5.8900157e-05
27	0x3c815403	0.01578713
28	0x3d289a33	0.04116268
29	0x3c9f81f7	0.019471152
30	0xbc8bca94	-0.01706437
31	0xbb239888	-0.0024962742
32	0xbb72e850	-0.0037064739
33	0x3cda721c	0.02666574
34	0x3c4e5f0b	0.012595902
35	0x3ccbba84	0.024869211
36	0xbc809c9b	-0.015699675
37	0xbbb1d883	-0.0054274215
38	0x3bbb555c	0.0057169627
39	0x3d814735	0.0631241
40	0xbc7ba718	-0.0153596625
41	0xbcaae035	-0.020858863
42	0x3cb24d22	0.021765295
43	0xbc89e1d1	-0.01683131
44	0xbc030c7c	-0.007998582
45	0xbbbf9c7d	-0.0058475123
46	0x3d13191b	0.035912614
47	0xbc76d02b	-0.01506428
48	0xbc1544c6	-0.009110635
49	0x3c8edc7b	0.017439118
50	0x3becef32	0.0072306627
51	0x3ce17437	0.027521236
52	0xbc42c13e	-0.011886893
53	0xbca7bb1c	-0.020474963
54	0xbb0cabf2	-0.0021464792
55	0xbb297cd6	-0.0025861762
56	0xbbfaa34b	-0.0076488606
57	0xba475c6d	-0.000760502
58	0x3c5d91fd	0.013523576
59	0x3d3276e3	0.04357041
60	0x3db61fcd	0.08892784
61	0x3ad69fbb	0.0016374508
62	0x3cafba04	0.021451004
63	0x3ccbe5ad	0.024889791
64	0xbb519e07	-0.003198506
65	0xbc2cc38f	-0.010544672
66	0xbbb484d6	-0.0055089993
67	0x3d113236	0.035448276
68	0x3c3eff59	0.011657559
69	0x3c267fd7	0.010162315
70	0x3c985314	0.018594302
71	0x3d014ce3	0.031567466
72	0x3d3c8f57	0.046035137
73	0xb9bdf966	-0.00036234705
74	0x3a329c5c	0.00068134605
75	0x3c44b641	0.012006343
76	0x3b078b97	0.0020682567
77	0x3d0175bb	0.031606417
78	0x3c3351ff	0.010944842
79	0x3a1c25e4	0.0005956574
80	0x3bd34676	0.0064476086
81	0x3c4e1639	0.0125785405
82	0x3cb7e032	0.022445772
83	0xbc3940d8	-0.011306964
84	0xbaa516ee	-0.0012595335
85	0x3d21f403	0.03953935
86	0x3ce9f160	0.02855748
87	0xbc91adaf	-0.017783014
88	0xbb0e4efc	-0.0021714559
89	0xbc4175a7	-0.011807836
90	0x3c068df9	0.00821256
91	0xbc6a4bc7	-0.014300293
92	0xbcb75b5b	-0.022382429
93	0xbb8caee6	-0.0042933105
94	0xbb396564	-0.0028289193
95	0x3cdedffc	0.027206413
96	0x38fc29e2	0.00012024098
97	0x3ad0589a	0.0015895546
98	0xbc65133f	-0.013981639
99	0xba370fcb	-0.00069832493
100	0x3d1892fd	0.037249554
101	0xbc0fbcea	-0.008773068
102	0xba1493c7	-0.00056677725
103	0x3c07fe78	0.008300416
104	0x3d5513d2	0.052020855
105	0xba9aa5ba	-0.0011798658
106	0x3c3dc8aa	0.011583487
107	0x3c84ebd5	0.016225735
108	0x3c8c2f18	0.0171123
109	0x3caaf780	0.02086997
110	0xbc059b08	-0.008154638
111	0x3cb62059	0.022232221
112	0xbcd600ee	-0.02612349
113	0x3c334c01	0.010943414
114	0x3d8587aa	0.065200165
115	0xbac92d9b	-0.0015348674
116	0xbc19aa57	-0.009378991
117	0xbc0d66a2	-0.008630427
118	0xbb9c8c4e	-0.004777468
119	0xbb5ce0bf	-0.0033703295
120	0x3d0aed1c	0.03391753
121	0x3d55c5f9	0.052190755
122	0x3cf4bf52	0.029876385
123	0x3c4217f1	0.011846528
124	0xbc175d51	-0.009238557
125	0x3d6453af	0.05574387
126	0xb9eb4356	-0.00044872862
127	0xbcb44149	-0.022003787

network_body.linear_encoder.seq_layers.2.weight f4 [128, 128]
0	0x3ddd47d2	0.10804714
1	0x3c8d5b6a	0.017255504
2	0xbd786896	-0.060646616
3	0x3e2285d0	0.15871358
4	0xbdfb11f9	-0.122592874
5	0xbaa91234	-0.0012899102
6	0x3c086c56	0.008326611
7	0xbe169ae3	-0.14707522
8	0x3d32be42	0.043638475
9	0x3e4ba281	0.19886209
10	0x3d0e7046	0.03477504
11	0x3dba80ea	0.0910662
12	0xbe7b538f	-0.24543594
13	0xbd1b36c5	-0.03789403
14	0xbc5acc4e	-0.013354374
15	0xbd03693e	-0.03208279
16	0xbd5a0522	-0.05322755
17	0xbc88441c	-0.01663404
18	0x3cd4068e	0.025882032
19	0xbdcecf8d	-0.10098181
20	0x3ccae842	0.024768952
21	0xbd966699	-0.07343788
22	0xbe8d500a	-0.27600127
23	0x3ddc2dad	0.107508995
24	0xbe0eae4c	-0.13933676
25	0xbd0f8df9	-0.035047505
26	0x3da2201f	0.07916283
27	0x3d7e26d3	0.062048744
28	0xbafd22b9	-0.0019312716
29	0xbe73858b	-0.23781411
30	0xbdc6cd3e	-0.097071156
31	0xbd833d1e	-0.064081416
32	0x3ce66738	0.02812539
33	0x3b918aa1	0.0044415747
34	0xbde286a5	-0.11060838
35	0xbe63cee3	-0.2224689
36	0xbcb274c9	-0.021784203
37	0xbc6a4db3	-0.0143007515
38	0xbe377548	-0.17915833
39	0x3df9106b	0.121613346
40	0x3ccbdc5f	0.024885355
41	0xbc757ca4	-0.01498333
42	0x3d6cadf0	0.057783067
43	0x3e0a0fff	0.13482665
44	0xbe1eb9d6	-0.15500578
45	0xbd91bc51	-0.07115997
46	0xbd65982f	-0.056053337
47	0xbe072214	-0.13196594
48	0xbda5f880	-0.08104038
49	0xbd540588	-0.051763088
50	0x3c39926f	0.011326416
51	0xbda889f9	-0.08229441
52	0xbe41f92c	-0.18942708
53	0xbdb683d1	-0.08911861
54	0xbdbf732e	-0.09348141
55	0x3dd45482	0.10367681
56	0xbd5f2895	-0.05448206
57	0xbdb24855	-0.087052025
58	0x3d78f366	0.060778998
59	0xbde3654d	-0.11103306
60	0xbd902dc1	-0.07039977
61	0xbdbbdbe8	-0.09172803
62	0x3d0aa2ce	0.03384667
63	0x3dcd12e6	0.1001337
64	0xbc8c8aa2	-0.017155949
65	0x3cfe3ac0	0.031033874
66	0xbc221164	-0.009891842
67	0xbd1a5c8b	-0.037685912
68	0x3dad0ce5	0.08449725
69	0xbd9fac8d	-0.07796583
70	0x3d49cf62	0.04927004
71	0x3c547a60	0.01296863
72	0xbd75e3e8	-0.0600318
73	0xbbdd1d44	-0.0067478735
74	0x3cf70a30	0.030156225
75	0xbcb82f23	-0.022483414
76	0x3d43bb4b	0.04778604
77	0xbe3e24e6	-0.18568763
78	0x3d0700c8	0.03295973
79	0x3c3cea1f	0.011530428
80	0xbc9ce5e5	-0.019152591
81	0x3d9ec3b5	0.07752172
82	0x3d5cae75	0.053877313
83	0xbe1186c7	-0.1421157
84	0x3cae9a70	0.021313876
85	0xbe952b7e	-0.29134744
86	0xbe217650	-0.15767789
87	0xbdc39da8	-0.09551555
88	0x3c8de918	0.017323062
89	0xbd948fef	-0.07254016
90	0xbe25c8e2	-0.16189912
91	0x3d989941	0.07451106
92	0xbe0c3fae	-0.13696167
93	0x3a57117c	0.00082042045
94	0xbe26d6dd	-0.16292901
95	0xbcf00960	-0.029301345
96	0xbe8f60b8	-0.28003478
97	0x3d5ad945	0.05342986
98	0x3dfb5c6a	0.12273486
99	0x3d79daf4	0.060999826
100	0xbe569256	-0.2095426
101	0x3dcad6a9	0.099042244
102	0x3d8bbdaf	0.06823289
103	0x3d8398bf	0.064256184
104	0x3bc3dd67	0.005977321
105	0xbdf66a58	-0.12032002
106	0xbc8086d6	-0.015689295
107	0xbbf9d5df	-0.0076243724
108	0x3da147e9	0.07875044
109	0xbd18b01e	-0.037277333
110	0xbc9aa4f7	-0.01887749
111	0xbdf96f1a	-0.12179394
112	0xbe423bf5	-0.18968184
113	0xbcb720a2	-0.022354428
114	0x3da29846	0.079392
115	0x3b90a845	0.0044145905
116	0x3e34b01e	0.17645308
117	0xbb93d742	-0.0045117447
118	0x3e4803d7	0.19532715
119	0xbaf854a9	-0.0018946129
120	0x3dfaaea1	0.12240339
121	0xbdc2e29f	-0.09515881
122	0xbd16840c	-0.036747023
123	0xbdec3fb5	-0.11535589
124	0x3d10aa65	0.03531875
125	0x3da734b7	0.081643514
126	0xbd4bc3b2	-0.049747176
127	0xbe37f8a0	-0.17965937
128	0x3d4b1cad	0.049587894
129	0xbc43a374	-0.011940826
130	0xbc6ea17f	-0.014564871
131	0x3e233191	0.15936877
132	0x3dbfc8e9	0.093644924
133	0xbd0e7f7e	-0.034789555
134	0x3dd07bf9	0.10179896
135	0x3d8a3ca6	0.06749849
136	0xbd3615ff	-0.04445457
137	0xbe330460	-0.17482138
138	0x3c23bca7	0.009993709
139	0x3d6e226b	0.058138292
140	0x3beb4dd4	0.0071809087
141	0x3c97a5a9	0.01851161
142	0xbd5e87e2	-0.054328807
143	0xbdb82321	-0.08991075
144	0x3d2f64e3	0.042820822
145	0xbdd0bb63	-0.10191991
146	0xbe028dc0	-0.12749386
147	0x3d236db2	0.039899535
148	0xbc0e8668	-0.008699037
149	0xbd62fc69	-0.0554165
150	0x3d6bf6a4	0.05760826
151	0xbd9164ff	-0.070993416
152	0xbdcc024f	-0.09961378
153	0xbe16f7f0	-0.14743018
154	0x3dbf9e46	0.0935636
155	0x3dd962cc	0.10614547
156	0x3dbd6bc1	0.09249068
157	0xbd6b1644	-0.05739428
158	0x3dcf304d	0.101166345
159	0xbdca7c71	-0.098870166
160	0xbcec51db	-0.028847625
161	0xbdad5d1c	-0.08465025
162	0xbd0cf304	-0.034411445
163	0xbd883aaa	-0.06651814
164	0x3de6d41c	0.112709254
165	0x3b8e1e51	0.00433711
166	0xbd2bd4ec	-0.041951105
167	0x3d921df6	0.07134621
168	0xbc557f05	-0.013030772
169	0x3e2c0b50	0.1680119
170	0x3d35f73d	0.044425238
171	0xbbabea3a	-0.005246428
172	0x3e1bfdc0	0.15233517
173	0xbe1aa326	-0.15101299
174	0xbd2e32af	-0.042528804
175	0xbe2b7270	-0.16742873
176	0xbe173c1a	-0.1476902
177	0x3d5e29b3	0.054238986
178	0xbd1fd7c3	-0.039024126
179	0x3dc60464	0.09668806
180	0xbd8ac937	-0.0677666
181	0x3e3be4ba	0.18348971
182	0x3e1af033	0.15130691
183	0x3d5759d4	0.0525759
184	0x3cc62031	0.024185272
185	0xbd9047cf	-0.070449464
186	0x3daedf39	0.0853867
187	0x3cfc2fa9	0.030784445
188	0xbd077885	-0.03307392
189	0x3dcbe1f4	0.099552065
190	0x3e0acb88	0.13554204
191	0x3b8ecd49	0.004357968
192	0x3ccb530c	0.024819873
193	0xbda615c1	-0.08109618
194	0xbe00eae5	-0.12589605
195	0xbdd1366b	-0.102154575
196	0xbe3c3acb	-0.18381803
197	0xbe0d3b79	-0.13792218
198	0xbd3c2ba7	-0.045940068
199	0x3cd38a42	0.025822762
200	0xbd15525a	-0.03645549
201	0xbd9def3b	-0.07711645
202	0xbe5d9ae9	-0.21641125
203	0x3cffdce8	0.031233266
204	0x3ca17dd3	0.019713318
205	0x3dedd0ae	0.11612068
206	0xbe27ff89	-0.16406073
207	0x3e71b710	0.23604989
208	0xb919a9a0	-0.00014654407
209	0xbd14c911	-0.036324564
210	0xbc24ebb4	-0.010065962
211	0xbd34b26c	-0.04411547
212	0x3daa255e	0.083079085
213	0xbd78cac2	-0.06074024
214	0x3b79bed8	0.0038108137
215	0x3e1a6ab8	0.15079772
216	0x3d18eaa8	0.03733316
217	0xbda9df6a	-0.08294566
218	0xbd6021f7	-0.05471989
219	0xbc59b495	-0.013287683
220	0xbdbaacdf	-0.09115004
221	0xbe26e4df	-0.16298245
222	0x3d7036cf	0.05864602
223	0x3dc7e9c3	0.097613834
224	0x3e287bfc	0.16453546
225	0xbd686c4f	-0.056743916
226	0xbdb3896f	-0.08766448
227	0x3cf355f0	0.029704064
228	0xbdb9e684	-0.090771705
229	0xbd98569b	-0.07438394
230	0xbd836859	-0.06416387
231	0xbdd88790	-0.105727315
232	0xbda27667	-0.0793274
233	0xbc8deee4	-0.017325826
234	0xbbd5d7f8	-0.0065259896
235	0xbe0e4f42	-0.13897422
236	0xbdae3734	-0.08506623
237	0x3c0124ed	0.007882339
238	0xbc8c1b43	-0.017102843
239	0xbd2d3c5b	-0.042293888
240	0x3e1bd00e	0.15216085
241	0xbbce37ea	-0.0062932866
242	0xbd911eb8	-0.07085937
243	0xbde2353c	-0.1104531
244	0xbd9f5cda	-0.07781382
245	0xbe352a1c	-0.17691845
246	0xbbb00fa2	-0.0053729573
247	0xbd240caf	-0.04005116
248	0xbcf8f94d	-0.030392313
249	0x3ddc53f4	0.107582
250	0xbe0ab13e	-0.13544175
251	0xbd1d1fe8	-0.038360506
252	0x3d26738d	0.04063754
253	0xbd566cbc	-0.05234979
254	0x3e1843fe	0.14869687
255	0x3d9f05d2	0.07764782

network_body.vector_processors.0.normalizer.running_mean f4 [8]
0	0x3a069308	0.00051336037
1	0x3b0853d9	0.002080193
2	0xbcbdf757	-0.02318923
3	0x4045e4bf	3.0920866
4	0xbbe30901	-0.0069285636
5	0xbcfa8930	-0.030582994
6	0xbf2faa1c	-0.6861894
7	0x3cc3e437	0.023912532
